data.pth (torch, 10019 bytes, 10 tensors)

l1.weight f4 [8, 131]
000000 f4 1e 4a be 13 5e e2 3d fd dd 88 be 78 5f 32 bd
       -0.1973837 0.110530995 -0.26731864 -0.043548077
000010 f3 73 b4 bc 1b 13 80 3e d1 c9 bd 3e 49 38 ab 3e
       -0.022027945 0.25014576 0.37068036 0.3344138
000020 10 a0 d0 3e 9d f8 b0 3e 78 ea b3 3e 22 1c 3d 3d
       0.40747118 0.34564677 0.35139823 0.046169408
000030 f9 be 27 3d 26 c2 b3 bd da c7 67 3e a1 35 48 3d
       0.04095361 -0.08777265 0.22634831 0.04887927
000040 b4 fc aa 3e f5 c3 a3 3e 8f 89 28 3e f6 81 4c 3e
       0.33395922 0.3198544 0.16458724 0.19971451
000050 c3 28 05 3e b5 a6 8e 3d a2 33 c6 3d bd e1 6f 3e
       0.1300383 0.069653906 0.09677817 0.23425956
000060 b8 2e a8 3e cf 7b ac 3e 2d 14 13 3e d5 54 bf 3e
       0.32848144 0.33688208 0.14363165 0.3736941
000070 3f b0 ae 3e b3 98 aa bd 02 8a c3 3e 93 10 af 3d
       0.3411884 -0.08329906 0.3819123 0.08548083
000080 25 21 60 bd d4 e0 44 3e 36 32 f8 3d e2 a1 4d 3f
       -0.05471911 0.1922639 0.12118952 0.8032514
000090 06 f0 a4 bd e6 3d bd 3e fc 8a ab be e5 d5 bf 3e
       -0.08053593 0.36961287 -0.33504474 0.37467876
0000a0 b3 5d ab 3d 90 ee fc bd 8e 00 51 3e 52 db 8f 3e
       0.08367481 -0.1235019 0.20410368 0.28097016
0000b0 41 b9 44 3e 8e 8e 71 be 9c 25 c8 3e df a4 ec 3e
       0.19211294 -0.23589537 0.39091194 0.46219537
0000c0 3a ee ed 3d a5 2b ec be 9e 76 e5 3e 37 1a 12 3e
       0.11617704 -0.46127048 0.4481706 0.14267813
0000d0 07 f6 5d 3e 46 32 ec be 58 fa 8c 3e de 0e d8 be
       0.21675883 -0.46132106 0.27534747 -0.42198843
0000e0 70 34 ec be 70 7c a8 3e df 33 ec be 19 0c 77 3e
       -0.46133757 0.32907438 -0.46133325 0.24125709
0000f0 5d 30 bf bd f9 81 aa 3e 78 8a c4 3e b3 34 6f be
       -0.093353964 0.33302286 0.38386893 -0.23359947
000100 c8 b3 a6 3e 47 90 58 bc 2a 2b a7 be e4 68 f5 3b
       0.32559037 -0.013217992 -0.3265012 0.0074893106
000110 08 ca 9c 3e 98 84 3b 3e 6f ee 7c 3e 9d 95 8f 3e
       0.30622888 0.18312299 0.2470033 0.28043833
000120 18 46 5f 3e 08 12 92 3e 80 d4 83 3e 6e 8d 65 be
       0.21804082 0.28529382 0.25748062 -0.22417232
000130 5f ef 9f 3d 1d ff 43 be 26 6c 30 3d dd a8 35 3e
       0.07809328 -0.19140287 0.04307189 0.17740197
000140 f9 50 99 3e a3 03 8a 3e c7 36 0d 3e 42 5e 8d 3e
       0.2994459 0.269559 0.13790427 0.27610976
000150 09 a6 04 3e e9 0e 99 3e c9 4b d7 3d 3e 23 73 bc
       0.12953962 0.29894188 0.10512502 -0.014839945
000160 0c 06 59 bd 21 ba 4c 3e da 7b a5 3e 7a 67 0d be
       -0.052984282 0.19992878 0.32321054 -0.13809004
000170 32 46 c0 3d a8 94 bf bd cf 30 c4 bd ef e1 13 bf
       0.09388389 -0.09354526 -0.09579622 -0.5776662
000180 07 34 df bd 3e 08 ce bd 48 4d 07 3f 62 c6 5e bf
       -0.10898595 -0.10060166 0.52852297 -0.8702146
000190 da c8 a5 3e c2 1d 23 3f 68 0c 5e bd dc 76 47 3c
       0.323798 0.6371728 -0.05421105 0.012174334
0001a0 15 0f 1b 3d 0f 87 bb 3c 11 8d 24 3e fe dc 8a bb
       0.03785618 0.02289155 0.16069438 -0.00423777
0001b0 c0 71 5d 3e 37 43 7a 3e 30 24 a2 be df 7a 35 be
       0.21625423 0.24439703 -0.31668234 -0.17722653
0001c0 eb 98 c3 3e 0a 5c 08 3e 2c 6f 83 3e 81 ca 1d 3d
       0.38202605 0.1331636 0.25670755 0.0385232
0001d0 af ca 06 3e 09 3b c1 be 46 38 bd 3e ef 4c 4b 3e
       0.13163255 -0.37740353 0.36956996 0.19853567
0001e0 64 ac 03 3e 76 dc b5 3d f5 92 f4 3e 86 4d 8b 3e
       0.1285873 0.0887994 0.4776837 0.27207583
0001f0 1c 50 c3 3e 53 1c 37 3e 32 50 84 3e 04 a2 74 3d
       0.38147056 0.17881899 0.25842434 0.059724823
000200 c1 31 ec be b0 59 88 3e 1a 6b b0 3e 44 5b 24 3e
       -0.4613171 0.26630926 0.34456712 0.1605044
000210 e1 b2 ba 3d c0 e6 58 3e 1f bf 3f bd 8b 0f 08 3e
       0.0911615 0.21181774 -0.046813127 0.13287179
000220 e6 c4 0a 3e 6f 80 73 3e e1 c3 bd 3e 4e e9 a8 3e
       0.13551673 0.23779462 0.37063506 0.32990497
000230 4a f4 85 3e b7 eb 9b 3e 41 b0 43 bd 9d 70 a9 3d
       0.2616294 0.30453274 -0.04777551 0.082734324
000240 27 05 88 3e ae 67 3a 3e e9 78 01 3e 94 1b 8c 3e
       0.2656643 0.18203613 0.1264378 0.2736479
000250 d2 7e 99 3e 95 72 00 3e bb bb 5f 3e ca 6e 04 3e
       0.2997957 0.1254371 0.21848957 0.12932888
000260 7b bc 21 3e 27 33 3e 3e b7 97 c6 3e 5c 5f 26 3d
       0.15794556 0.185742 0.38787624 0.040618286
000270 30 9a 67 3e ea 1f 47 3e 16 36 6f 3e e9 7a 9f 3e
       0.22617412 0.19445768 0.23360476 0.3114846
000280 1e 5c 99 bd 80 f7 2f 3e 89 97 b2 3e 70 98 d4 3d
       -0.07488273 0.17184258 0.34881237 0.10380638
000290 68 90 80 3c b5 b7 40 3e 3d 52 05 3f 49 ed 4e bd
       0.015693858 0.18820079 0.5207861 -0.05051926
0002a0 bf ae 85 3e 9a 0f 0d 3f 22 15 38 3f b0 16 64 bd
       0.26109883 0.5510193 0.71907246 -0.0556857
0002b0 52 24 4d 3e a6 78 98 3e f0 88 e3 3d 0b 00 9c 3e
       0.20033386 0.29779547 0.11110103 0.30468783
0002c0 6c ca f3 bd 47 34 65 3e de ba 5b 3e a7 08 dc 3d
       -0.11903843 0.22383223 0.21458003 0.10743838
0002d0 66 af 85 be e6 00 2a 3f 94 35 6e 3d 5e 69 78 3e
       -0.2611038 0.6640762 0.058156565 0.24258944
0002e0 59 c3 78 be 1b d2 d2 3e 10 06 9a be 73 68 8d be
       -0.24293269 0.41175923 -0.3008275 -0.2761875
0002f0 2a c9 de 3e a5 41 75 be af 7c db 3e 6f 66 16 be
       0.4351285 -0.23950823 0.42868564 -0.14687513
000300 65 ec 70 3e 94 17 84 3e e1 94 23 be 98 0b ae 3e
       0.23527677 0.2579924 -0.15974762 0.3399322
000310 28 e1 0b 3e d0 83 ed 38 2b ee 93 3b 52 34 0e 3e
       0.13660109 0.00011325593 0.004514476 0.13887146
000320 e0 cb 7e 3d 3a d5 26 3e 78 79 86 3e 09 d7 a1 3e
       0.06220615 0.16292277 0.26264548 0.3160937
000330 0b f0 c4 3e 50 2d d5 3e 99 53 9c bd 79 48 5a 3e
       0.38464388 0.41636133 -0.076331325 0.21316709
000340 27 dc 3f 3e cc 52 c0 3d 6b f4 a8 3d 85 4c 5b 3e
       0.18736325 0.09390792 0.08249744 0.21415909
000350 e3 21 bc 3c ea e7 da 3e 64 91 76 3e 14 28 37 3e
       0.022965377 0.4275506 0.240789 0.17886382
000360 9d bb 56 3e 17 ea 0a 3d 1d 9d c5 3e c8 77 6b 3d
       0.20970006 0.03391465 0.3859643 0.05748728
000370 64 d6 44 3d 49 d7 52 3e d1 89 35 3e 16 9c fe 3d
       0.04805602 0.20589937 0.17728354 0.12432115
000380 49 2d 42 3e 40 3a 89 bd 0f 35 24 bf 71 50 8c be
       0.18962587 -0.067005634 -0.6414346 -0.27405122
000390 a2 77 1a bc 95 d8 96 3e 4b ac 9b bf 47 09 91 3e
       -0.009427937 0.29462114 -1.2161955 0.2832739
0003a0 91 a3 c6 3e 41 d4 d2 3e f6 2b 22 3e 42 f1 21 be
       0.38796666 0.41177562 0.15837082 -0.15814689
0003b0 c7 e0 3b 3e 2c dd 8d 3e c5 e1 94 3d bf 89 e8 3d
       0.18347465 0.27707803 0.072696246 0.11354398
0003c0 dc ee 60 3e e1 be 3f 3d a3 fd e3 3e 24 eb d1 3e
       0.21966118 0.046812896 0.44529447 0.4099971
0003d0 7e 56 9d 3d 9c 68 25 3e 56 17 b4 3e 54 11 8e bd
       0.07682513 0.16153187 0.35174054 -0.06936899
0003e0 cb 2d 08 3f 5c cf 4b 3f 0c c5 24 3e ee e9 1b 3d
       0.53194875 0.7961328 0.16090792 0.03806489
0003f0 f4 f0 72 3e 5a b3 bb 3e 46 c7 f1 3e 22 70 b1 3e
       0.23724729 0.36660272 0.47222346 0.34655863

l1.bias f4 [8]
000000 51 35 ec 3e 21 e0 77 3f b5 a2 fc 3e 4f 86 19 3f
       0.46134427 0.9682637 0.49342886 0.59970564
000010 e4 67 3e 3f 55 a7 fa 3e 3b fa ed 3e 61 36 88 3f
       0.74377275 0.4895579 0.46479973 1.0641595

l2.weight f4 [8, 8]
000000 4f 1d a7 be 0a f7 a5 be 18 ac 44 bd 28 aa 18 3d
       -0.32639548 -0.32415038 -0.048015684 0.03727165
000010 a0 60 1a bd 3e f9 2e 3e a8 f4 a5 3d 86 c4 8d be
       -0.037689805 0.17087266 0.08103305 -0.27688998
000020 44 65 07 bf 75 6f 41 bd 9d 59 7c be 6f 20 f9 3f
       -0.52888894 -0.047225434 -0.2464356 1.9463023
000030 bb 73 d6 3f fe d1 a9 3f 6a 66 bc 3f fe 52 c0 3f
       1.6754068 1.326721 1.4718754 1.5025327
000040 2c 55 bc 3f 2d ba 8d 3f 5b 05 aa 3f dd 5f be bd
       1.4713492 1.1072441 1.3282884 -0.09295628
000050 47 29 46 bf fd e8 63 3f 05 52 db be 5a e4 93 be
       -0.77406734 0.89027387 -0.42836013 -0.28885156
000060 08 0b 62 3f e4 be a8 3f 7c ef 5d 3f 02 6c 38 3e
       0.8829808 1.3183255 0.8669355 0.18009952
000070 8b 53 b4 bf e6 a5 74 3e 87 d2 05 3f 72 cf 9b 3e
       -1.4087995 0.2389141 0.52274364 0.30431706
000080 77 ff 5f 3e a6 48 9c 3f 76 da 85 be ec fa 6d be
       0.21874796 1.220967 -0.26143235 -0.2324025
000090 d6 93 cf 3e 2f a2 81 bf 73 fd 0c be 8a 84 87 3f
       0.40542477 -1.012762 -0.13768558 1.0587323
0000a0 22 ff 10 3f 0a 7c 8b 3f 0e f7 cc 3e 27 8a 93 3d
       0.566393 1.0897229 0.40032238 0.07204085
0000b0 b4 fd 83 3f 1d 24 2b bf 8c 0a 86 bf ef 71 fd 3e
       1.0311799 -0.6685198 -1.0471969 0.49500987
0000c0 6e 7a 58 3e 37 fd 16 be 2d e0 cf bd fd c9 48 3d
       0.21140453 -0.14745031 -0.1015018 0.049020756
0000d0 96 1f b7 3d 1a b0 34 be cc a9 81 bd d3 a1 b9 bd
       0.089415714 -0.17645302 -0.06331214 -0.09064069
0000e0 14 95 92 be b7 5e 62 3f 8e 1c a9 bd 90 39 52 bd
       -0.28629363 0.88425773 -0.082573995 -0.051324427
0000f0 27 70 6d bf a5 33 38 bf b8 c1 2d 3f e3 ff 7e 3f
       -0.92749256 -0.71953803 0.67873716 0.996092

l2.bias f4 [8]
000000 05 ec 76 be 04 78 4a 3f 75 18 07 3f 7f 4e 8e 3e
       -0.24113472 0.7908938 0.52771693 0.27794263
000010 e9 5e 51 3f 21 d9 58 3f c6 80 7b bd 58 18 fb 3d
       0.81785446 0.8470631 -0.061402105 0.122605026

l3.weight f4 [8, 8]
000000 4f c3 a2 3e 73 0d 30 bf 3e 6d c0 3d 5d 0e 15 3f
       0.31789634 -0.6877052 0.09395836 0.5822504
000010 fa c5 78 3f c8 0a 2b 3f 29 56 f6 bd 2f 0a 6f 3f
       0.9717709 0.66813326 -0.120281525 0.93374914
000020 94 85 90 bd 1b 01 02 3e ba 75 96 3f db 05 54 3f
       -0.07056728 0.12695734 1.1754677 0.82821435
000030 81 98 44 bf b5 2f 04 3e 38 6e 3e be f5 25 c9 be
       -0.767952 0.12908824 -0.18596733 -0.3928677
000040 06 e0 83 be 8b c0 b5 be bf 91 91 3d d6 d8 85 be
       -0.25756854 -0.3549846 0.07107877 -0.26141995
000050 63 74 5d be 7d 94 a1 3e ae 53 45 3e 74 23 1a be
       -0.2162643 0.315586 0.19270203 -0.15052587
000060 d0 c0 38 bd 52 ea e2 3f dd 46 13 be 1a 61 b5 be
       -0.045105755 1.7727759 -0.14382501 -0.35425645
000070 ee 89 10 3e 89 90 1a 3f 01 66 85 3e f7 35 9d be
       0.14115116 0.60376793 0.26054385 -0.30705234
000080 91 7e 98 3e a2 1e 3c 3f a9 3b ba be 35 26 53 3f
       0.29784063 0.7348424 -0.36373642 0.82480174
000090 6f 04 b0 3f 86 d5 92 3e 94 73 5e 3d c6 90 be 3f
       1.3751353 0.2867853 0.054309443 1.4887931
0000a0 a0 d1 65 3d 41 a3 ad be 28 83 9f 3f e3 bc 9d 3f
       0.056108117 -0.33913615 1.2461901 1.2323269
0000b0 d2 25 aa 3f 14 11 d4 3f 71 5e d4 3c 0f 65 92 bd
       1.3292792 1.6567712 0.02592394 -0.07148182
0000c0 ab 58 b0 be 65 d9 36 3e 64 ac 42 3f 95 cf 7e 3f
       -0.34442648 0.17856367 0.760443 0.99535495
0000d0 db 60 ae be c8 72 14 bf 84 78 54 3e 29 90 61 3f
       -0.3405827 -0.5798764 0.20749098 0.88110596
0000e0 23 90 91 3e da c5 ba 3f 7c 0e 05 be 7a 31 8a 3d
       0.2843028 1.459163 -0.12993807 0.06747718
0000f0 2a 6e 48 bf c2 0e 72 bf 9f a4 9f be c8 ed e2 be
       -0.78293097 -0.9455377 -0.31180283 -0.44322038

l3.bias f4 [8]
000000 02 ec 15 be 80 cf 83 3e 24 41 9e be b3 ea 50 3f
       -0.14640811 0.25744247 -0.30909073 0.8160812
000010 78 90 c1 bd 88 06 f0 3e eb 74 3f bf 40 96 39 3e
       -0.09451383 0.46879983 -0.7478778 0.18123722

l4.weight f4 [8, 8]
000000 89 67 ab 3e 2b 59 37 3f 14 18 8c bd 31 63 15 bf
       0.3347743 0.71620435 -0.0684053 -0.5835448
000010 b4 02 07 bf 08 c8 51 3f 3e 2d 25 3f d6 c1 c9 bd
       -0.527385 0.8194585 0.6452216 -0.098514244
000020 c4 5c cc 3e ad d6 cd 3d 81 24 ee bd b2 0f 6f be
       0.39914525 0.10050712 -0.11628056 -0.23345831
000030 19 5b 14 bf 6d d4 66 3f 3a 85 cc be 21 65 14 bf
       -0.57951504 0.90167886 -0.39945394 -0.5796681
000040 72 31 44 3e 3b 70 96 bf e0 eb 3b bd 32 48 a2 3f
       0.19159487 -1.1753 -0.045879245 1.2678282
000050 4f de 92 3f dc d0 fb be 1c 3e aa bf eb 1d 84 3f
       1.1474093 -0.49182785 -1.3300204 1.032163
000060 15 f0 ee be 38 4e 58 3f b8 7c 2b be 54 41 01 bf
       -0.46667543 0.8449435 -0.16746795 -0.5049031
000070 89 ea 1f bf ba e5 42 3e dc d4 0a 3f 8d bd 0f bf
       -0.6246725 0.19032946 0.5423105 -0.56148607
000080 62 86 84 bf 63 e2 2c 3f 54 07 04 be 53 47 ec 3e
       -1.035351 0.6753294 -0.1289342 0.46148166
000090 73 df 0b 3f 6a 1d a9 be c1 86 76 3f 24 ae 94 3f
       0.5463783 -0.33030254 0.9629937 1.1615644
0000a0 ca 01 51 3f ad f7 0a bf 8f de 32 be 72 15 9e bf
       0.81643355 -0.54284173 -0.17467712 -1.2350295
0000b0 14 81 53 3f db 09 c1 3e c3 77 61 3f 4e 56 21 bf
       0.8261883 0.37702832 0.88073367 -0.63022316
0000c0 51 4a a5 3e 35 64 2b 3f d5 02 14 be 3d ff 5c bf
       0.3228326 0.6694978 -0.14454205 -0.8632696
0000d0 6b 22 b3 3d 9e 91 58 3e 14 e3 6e be c9 6d bf bd
       0.08746799 0.21149299 -0.23328811 -0.09347112
0000e0 dc 41 38 bd c4 99 d2 3d 26 ba ed bd fb 60 0b 3e
       -0.044984683 0.10283235 -0.116077706 0.13611214
0000f0 ed 5f 92 3f a0 35 4c 3f af 95 5c bd be 68 53 bf
       1.1435524 0.79769325 -0.053853687 -0.825817

l4.bias f4 [8]
000000 27 ed 87 3e e3 e6 b7 3e 51 88 de 3e f2 e7 c5 be
       0.2654812 0.3591834 0.43463376 -0.38653523
000010 96 a9 16 bd c6 ec cd be 88 45 f5 be c2 0b cb 3e
       -0.036782824 -0.40219706 -0.4790461 0.39657408

l5.weight f4 [12, 8]
000000 c4 da d8 3e ca 6a 46 bf d6 a1 d3 bf 95 64 a5 bf
       0.42354405 -0.775067 -1.6533763 -1.292132
000010 49 6d 81 3e 3e 32 09 bf 3f 9b 52 c0 26 93 9b 3e
       0.2527869 -0.5359229 -3.2907255 0.30385703
000020 a4 aa 69 3e e5 95 10 3d b7 e9 93 bf f4 de aa 3e
       0.22819 0.0352992 -1.1555699 0.33373225
000030 bb 58 9e bd b4 68 b2 bf f3 97 b6 3d 93 61 a3 3e
       -0.07731768 -1.3938203 0.08915701 0.3191038
000040 83 ad 85 be e7 53 09 bd 26 bb 61 bf 7f c7 6a bf
       -0.2610894 -0.03352728 -0.8817619 -0.91710657
000050 33 8a 21 3f 9f dd 59 bf ac 43 32 bf 23 48 0e be
       0.631015 -0.8510379 -0.6963451 -0.13894705
000060 79 2e 97 3e 7f 7f a1 3e ff a9 27 bf a8 66 0d 3f
       0.29527643 0.31542584 -0.6549377 0.55234766
000070 12 98 f7 be b8 25 19 3e 77 84 0d 3f 3b 23 dc be
       -0.48358208 0.14955795 0.5528025 -0.4299563
000080 29 32 2b bf 56 25 27 bf 3e 9c fc 3e 99 85 d8 be
       -0.66873413 -0.65291345 0.49337953 -0.42289427
000090 e7 8a 9c be d1 7b bb bf 1d 27 62 be 65 20 da be
       -0.30574724 -1.4647161 -0.22085233 -0.4260284
0000a0 62 5c 90 3e 88 e2 56 3f ce 6f 33 bf eb dd c6 be
       0.28195482 0.8393941 -0.70092475 -0.38841185
0000b0 ca 64 91 bf 2e fb 29 bf 70 ff 9a bf 5f cf 0d 3f
       -1.1358883 -0.66398895 -1.2109203 0.5539455
0000c0 ae bb c2 be 3f 50 12 bf 1c 57 44 3f 20 8e 1a be
       -0.38033813 -0.57153696 0.7669542 -0.15093279
0000d0 ea a7 6e 3d 18 91 35 bf 68 17 bf 3c 6f be aa bf
       0.058265604 -0.7092452 0.02332659 -1.3339366
0000e0 f0 aa 66 3e 49 63 8a 3e 49 ad 36 bf 02 2c ee be
       0.22526145 0.27028874 -0.7135816 -0.4651795
0000f0 e1 73 46 bf 09 9b 6d 3e bb 84 58 3f 09 d1 01 be
       -0.7752057 0.23203672 0.8457753 -0.12677397
000100 c3 f3 25 be 4b 0d b8 3d f3 bc 43 bf 7d 45 32 be
       -0.16206269 0.089869104 -0.7646019 -0.1740932
000110 4c b2 8f bf 78 a4 0e 3f 83 b0 3a bf 71 96 31 3e
       -1.1226287 0.5571971 -0.72925586 0.17342545
000120 eb bb 8c bf dd a8 1d bf 54 70 24 3e 26 85 26 bf
       -1.0994848 -0.6158579 0.16058475 -0.6504692
000130 5c 2c ee 3e cd 9e 0f bf d4 88 35 bd 6b 51 54 bf
       0.4651822 -0.56101686 -0.044319943 -0.82936734
000140 7a 29 0f bf 55 5f e9 be 98 56 3a 3f 3e 89 bd be
       -0.55922663 -0.45580545 0.7278838 -0.3701877
000150 eb 96 a2 3e ec 0d 03 be 7d 63 ca bd f1 86 38 c0
       0.31755766 -0.1279828 -0.09882257 -2.8832362
000160 53 3c da be 06 ba 1b bf 5b 4c 83 3d ef 46 ed be
       -0.4262415 -0.60830724 0.06411048 -0.4634318
000170 a8 c2 43 be a1 6f 0c 3f 23 d9 04 c0 ef 92 b2 be
       -0.19117224 0.5485783 -2.075753 -0.34877726

l5.bias f4 [12]
000000 a0 ec 55 3e 64 96 07 be d6 1a 87 3d ee ca d0 be
       0.20891047 -0.13240963 0.065969154 -0.40779823
000010 30 2e fd 3d 1f 10 01 3f 87 b8 3b 3f 00 fc 2f be
       0.12362325 0.50415224 0.7332844 -0.17185974
000020 7b 18 ec 3d 78 57 61 be ec 86 15 bf 2f 6e 4e 3d
       0.11528107 -0.22006023 -0.58409 0.050398048
